adam.pt (torch, 3832 bytes, 4 tensors)

weight f4 [16, 4]
000000 95 20 0c be bd 1c 05 be cc b4 78 3e ee f6 92 3e
       -0.13684304 -0.12999244 0.24287719 0.28704017
000010 77 09 c5 3e a2 79 8b be c2 83 12 3e ae 14 2c bc
       0.38483784 -0.27241236 0.14308074 -0.010502977
000020 2a ef 08 3c c9 7a 25 be ef 20 2c bf 5c 4f 77 bf
       0.008357802 -0.1616012 -0.6723775 -0.9660547
000030 a2 3e d3 be a5 29 ac 3e 04 ea 15 bc 37 3a ee 3e
       -0.41258723 0.33625522 -0.009150032 0.4652879
000040 01 51 cb 3d 52 a9 86 bd 4e 10 0b 3f ca 4e 58 3f
       0.0992756 -0.06575264 0.54321754 0.8449522
000050 68 56 21 bd 46 10 4d be 98 f5 92 3e 5b 1d 69 be
       -0.039389044 -0.20025739 0.28702998 -0.22765104
000060 61 8e 14 3d a2 b4 83 be 1e b2 50 bf ea 00 ab bf
       0.036268596 -0.2572375 -0.81521785 -1.3359654
000070 53 85 0f be 0d d7 7a bd 1f b4 1b bf 1a 78 0a bf
       -0.14015703 -0.061240245 -0.6082172 -0.5408951
000080 70 ae aa be c2 cd 3d 3e 2a 62 e8 3d 41 3f 1e 3f
       -0.3333621 0.18535522 0.11346848 0.6181527
000090 e0 97 c7 3e aa d9 fe 3d b3 a9 fe 3e 5c ca cb 3e
       0.3898306 0.1244386 0.49738845 0.39802825
0000a0 41 eb dd be a7 64 e2 3e fc de 08 bf 15 ee 2e be
       -0.43343547 0.44217417 -0.5346525 -0.17083009
0000b0 01 e6 3f 3e 99 40 e9 bd c1 5b 9b bd 05 00 03 be
       0.18740083 -0.11389274 -0.0758586 -0.12792976
0000c0 82 26 e1 be c3 74 ca 3b a0 f7 f5 be cc 80 4e be
       -0.43974692 0.00617847 -0.48040485 -0.2016632
0000d0 c4 7a a8 3e 53 15 8c be 77 20 a9 be 5e b3 8e be
       0.32906163 -0.2736002 -0.3303258 -0.2787122
0000e0 7a 12 17 be 5f f5 f0 be aa 0d 82 3e 24 63 c0 be
       -0.14753142 -0.47062203 0.2540105 -0.37575638
0000f0 83 15 34 3e 1a a9 db 3d 06 31 c9 3e 1a 87 83 3f
       0.17586331 0.10725613 0.39295214 1.0275605

bias f4 [16]
000000 99 a1 8a be a3 1d 80 3e a0 24 d2 3e da fb 29 3e
       -0.27076414 0.2502261 0.41043568 0.1659998
000010 b9 5d f4 3e c7 88 17 be ee 1e 12 3f fd 22 a4 3e
       0.47727755 -0.1479827 0.57078445 0.32057944
000020 0b 34 04 3f 15 4b bd be c8 65 9c 3e 27 29 5d bd
       0.5164191 -0.36971346 0.30546403 -0.053994324
000030 79 d6 f8 be 98 30 47 3e cf c6 24 bd 2f f9 11 3f
       -0.4860113 0.19452131 -0.04022866 0.5702085

weight f4 [2, 16]
000000 a5 fc c3 3d 5c 2b 39 bd 46 2c 64 3f c5 ff bb be
       0.095696725 -0.045207366 0.89130056 -0.36718574
000010 ab 5b 33 bf f1 25 de bd b8 d6 99 3f a2 ae 26 3f
       -0.7006175 -0.108470805 1.2018652 0.6511022
000020 94 df 17 bf 4c 52 fa 3d 82 89 ac 3e 15 ac 3e bd
       -0.5932553 0.12222728 0.3369866 -0.04655083
000030 4b 55 c3 bd bf ee 49 3e d3 f4 58 bd 16 1d 45 bf
       -0.09537753 0.1971998 -0.052967858 -0.76997507
000040 93 7b d5 3d 54 f0 44 38 f3 83 43 bf 26 f3 a1 3d
       0.104239605 4.6953865e-05 -0.76373214 0.07907705
000050 8c b6 3c 3f 06 ae a8 3d cb 2e 72 bf ef 32 93 be
       0.73716044 0.08236317 -0.9460265 -0.28749797
000060 7e b0 a4 3e 57 a9 62 3e f9 65 0b be f9 3b 35 be
       0.32165903 0.2213491 -0.13613118 -0.17698659
000070 87 06 20 3d a5 0e de be a5 00 65 be 6c 6b 31 3f
       0.039068725 -0.43370548 -0.22363527 0.6930454

bias f4 [2]
000000 6b b1 a9 be fd 60 f1 3d
       -0.33143172 0.11786077
