tensor.pt (torch, 3848 bytes, 4 tensors)

weight f4 [16, 4]
000000 fb 5d 1c be 4e c3 ae 3d 05 4a 2b be 1b b4 39 3f
       -0.15270226 0.08533345 -0.16727455 0.72540444
000010 8f 44 97 bd ed 11 6e be c2 90 ec be b2 f3 bd be
       -0.073861234 -0.23249026 -0.4620419 -0.37099987
000020 ae 7f 5f 3e 6c 1d 85 3e 07 7b d2 3e a4 03 0b 3e
       0.2182605 0.2599901 0.41109487 0.13575608
000030 2e f5 55 3d d2 fb 97 3e cf f6 3f 3e 19 0a 4c 3f
       0.052235775 0.2968431 0.18746494 0.7970291
000040 dd f4 85 3e 0f 4c b4 be 58 b3 e9 3d 19 5c 0b 3f
       0.26163378 -0.35214278 0.1141116 0.54437405
000050 64 43 a2 be 55 37 c4 3e 48 55 b2 be 48 c8 8e bd
       -0.3169204 0.38323465 -0.3483069 -0.06971794
000060 28 db 81 be 09 17 02 3e c3 1b 44 be 27 e1 22 3f
       -0.25362515 0.127041 -0.19151215 0.63624805
000070 d4 42 df be b4 39 92 bd b6 47 5a be f0 b1 b2 be
       -0.43605673 -0.07139912 -0.21316418 -0.3490138
000080 dd 90 73 3e 2c e0 59 be c2 45 a0 bd 0b 7c 01 3f
       0.2378573 -0.21276921 -0.07825805 0.505799
000090 14 84 2b 3d aa ad 1a be 3a 44 88 3d e8 c7 b7 3e
       0.041874006 -0.1510531 0.06653638 0.35894704
0000a0 fb bc 9b be 01 b7 59 3d 4c 8d 5c be 38 4c d5 be
       -0.30417618 0.05315304 -0.21538275 -0.41659713
0000b0 af 99 38 3e a1 19 76 bd cd f6 1c be 8c cf 4d bf
       0.18027376 -0.060083035 -0.15328522 -0.80394816
0000c0 86 26 a1 be 50 27 96 be 86 12 a0 bd e3 85 d4 be
       -0.31474704 -0.29326868 -0.07816033 -0.41508397
0000d0 24 9b 67 be 6a fd 2f 3e 58 63 54 3e c7 fe 1f 3f
       -0.22617775 0.17186514 0.20741022 0.62498134
0000e0 40 d9 46 3e 42 b0 ee be be 89 97 bc b6 68 ba be
       0.19418812 -0.4661885 -0.018498298 -0.36408013
0000f0 97 77 2b 3e 2b 04 27 be f9 41 f9 be 4a 7c 42 be
       0.16744839 -0.16310184 -0.48683146 -0.18992725

bias f4 [16]
000000 92 85 aa 3e ea 08 b9 be 75 24 fe 3e 9c 4a c7 3e
       0.3330503 -0.36139613 0.4963719 0.3892411
000010 5b 8f 51 bd d9 74 82 be 68 dc 86 3e b9 b1 e7 bd
       -0.051162105 -0.25479773 0.26340032 -0.11313195
000020 cf 77 49 be 6c ef 42 3e a4 cf b0 be ff ac fc 3d
       -0.1967461 0.19036645 -0.34533417 0.12337684
000030 1d b5 0b 3e c3 cc 9f 3e 99 a0 9e be ae 75 be be
       0.13643308 0.31210908 -0.309819 -0.37199157

weight f4 [2, 16]
000000 81 5c 80 be 4d 76 73 bd c7 d9 64 bc c6 14 2e bf
       -0.25070575 -0.059438992 -0.013967938 -0.6800045
000010 55 27 8a be 7d 6c 17 be d0 92 ef be e8 e8 bf 3d
       -0.26983133 -0.14787479 -0.46791697 0.09370595
000020 f3 52 9f be 09 15 6e be 06 eb 46 3e 29 b6 dd 3e
       -0.31117973 -0.23250212 0.19425592 0.4330304
000030 1e 51 9e 3e c4 f9 04 bf 2c ff 29 3e b0 44 71 3e
       0.30921263 -0.5194361 0.16601247 0.23561358
000040 b6 40 0c 3f 59 35 16 3e b3 b2 0a 3d d5 cf 11 3f
       0.5478624 0.14668788 0.033861827 0.5695775
000050 38 a0 10 3d db 2d 83 be 4f 69 9f 3e ac 2e 1f 3c
       0.035309047 -0.25620922 0.31135032 0.009715717
000060 59 71 d3 bd fe fb 31 3e f3 d7 1e 3e 56 33 c3 be
       -0.10324354 0.17381284 0.15512066 -0.38125104
000070 e9 e1 d3 bd 79 a2 8d 3e db 52 6f be 6a 37 57 be
       -0.10345823 0.2766302 -0.2337145 -0.21017233

bias f4 [2]
000000 0a 12 16 3f 80 24 07 bf
       0.58621275 -0.5279007
