tensor.pt (torch, 3848 bytes, 4 tensors)

weight f4 [16, 4]
00000000: 484e bcbd d8d0 a7be 8b53 7cbe a5ba 9fbd
00000010: 7a11 373e 9bef 68be ab62 d7be a90a 4a3e
00000020: babd 093e f103 6cbe 72b0 a63e aa0b c0be
00000030: a434 8d3b 8add 90be 99cd 71bf 477b 3abf
00000040: 5c3a 3dbe 46e5 c7be ad53 8fbf abda babf
00000050: b3c7 ae3e 9064 c1bc b165 efbe 1d07 b3bd
00000060: 92af a23b fe5c 9b3e 2394 4f3f f4d0 3b3f
00000070: 6a80 ba3e dfaf b63e 3d92 a33d 66d0 b8be
00000080: 3b63 a63e 5250 0abd ab79 dbbe c3ee 33bf
00000090: a1d6 313e 2ef4 413e 67ed 233f 1fb6 993f
000000a0: a651 303e 864c 873e 494b 103f 3520 523f
000000b0: 506e 603e ea5b 0ebe 61bf 863e 6dc5 b8bd
000000c0: b386 3d3e 61b0 8a3e 5f3f 47bd 9128 46be
000000d0: 39fb 9fbe 0aac a8bd 8704 2a3f e12c 303f
000000e0: 1aa1 de3d 6b22 d7be 2d01 88be bf08 4fbf
000000f0: fc57 e3bc ffa8 f7bd db01 28be 9b77 29bb
-0.091946185 -0.32776523 -0.24641244 -0.077992715 0.1787776 -0.22747652 -0.42067465 0.19730629
0.13451281 -0.23048379 0.32556492 -0.375089 0.0043092538 -0.2829402 -0.9445434 -0.72844356
-0.18479294 -0.3904211 -1.1197411 -1.4597982 0.34136733 -0.023607522 -0.46757272 -0.08741591
0.0049647773 0.30344385 0.81085414 0.7336571 0.36426097 0.35681054 0.07986877 -0.36096495
0.32497582 -0.033768006 -0.42866263 -0.70286196 0.1736703 0.18940803 0.6403412 1.2008704
0.17218646 0.2642557 0.56364876 0.82080394 0.21917081 -0.1390225 0.26317886 -0.09022031
0.18508415 0.2708769 -0.04864442 -0.19351412 -0.31246355 -0.08235939 0.6641316 0.6881848
0.108705714 -0.42018446 -0.26563397 -0.8087272 -0.027751915 -0.1209278 -0.16406958 -0.0025858644

bias f4 [16]
00000000: 2daa 05bf 6c5d e8be ba02 623d aeb1 e93e
00000010: 73b0 193f c23e eabe a0aa a93e 77c6 93be
00000020: a2d5 b53e 5d87 143f 16ae 033f dcf3 84be
00000030: 6f72 40be 8621 ad3e f95a ab3e cdf8 febe
-0.5221279 -0.45383775 0.05517838 0.4564337 0.60034865 -0.45751005 0.3313799 -0.28862354
0.3551455 0.5801905 0.5143751 -0.259673 -0.18793653 0.3381464 0.33467844 -0.49799195

weight f4 [2, 16]
00000000: 8412 78be d8f5 2b3e ceab 1a3e a305 3a3f
00000010: 616f 883f f1a1 8a3d d8df 29bf b48e 233d
00000020: 0eb2 b53e 2e0a 36bf 264c 57bf b3ff 643d
00000030: 58b5 7e3d fd0b 0bbf 5121 1b3f 659e 643e
00000040: 8d66 053d fc69 9cbc 3abc c8bd 030a 2fbf
00000050: acd5 9fbf 2d13 bc3d b3e8 1e3f fdb4 633c
00000060: 09e1 04bf a4dd 773f 7db5 f33e 2e5c 523e
00000070: d5c1 e83d fab4 da3e 7111 edbe fb93 443e
-0.24225813 0.16793 0.15104601 0.7266485 1.065899 0.06769169 -0.66357183 0.039931014
0.35487407 -0.7110928 -0.8410057 0.055907916 0.06218466 -0.5431517 0.6059771 0.22326048
0.032568503 -0.019093506 -0.09801526 -0.6837465 -1.2487082 0.09183345 0.6207382 0.013898131
-0.51905876 0.9682257 0.47599402 0.20542976 0.113650955 0.427162 -0.4630237 0.19197075

bias f4 [2]
00000000: 3081 3fbe 218c 973d
-0.18701625 0.07399774
