AIFinal/Genetic.pt (torch, 4168 bytes, 6 tensors)

weight f4 [8, 4]
00000000: af06 d9bf d561 b03f b330 8840 894d 1d3f
00000010: 4718 3d40 4b2f ad3f d8d0 f840 73b7 6fbf
00000020: a560 d3bf d42c c13f b018 703e 46a1 6e3f
00000030: c827 80be 04df 8f3f 64bf 0b40 501c dcbe
00000040: 428b 19c0 58d5 b2be 6ece bc3e 5621 c3bf
00000050: 2674 aebf 1858 f63e 967d f4bf 8687 d5bf
00000060: e1d7 553f 73ba 0a40 b192 1440 0dcd 0240
00000070: e915 1640 1a25 ea3f b8d6 febd c9a6 5040
-1.6955165 1.3779856 4.2559447 0.61446434 2.9546068 1.3530058 7.7754936 -0.93639296
-1.6513869 1.5091805 0.23446918 0.93214834 -0.2503035 1.1239934 2.1835566 -0.4299035
-2.3991246 -0.34928393 0.36876243 -1.5244548 -1.3629196 0.48114085 -1.9100826 -1.6681983
0.8353253 2.16763 2.3214533 2.0437653 2.3450873 1.8292572 -0.12443298 3.2601798

bias f4 [8]
00000000: 3499 4bbd 47e1 1540 122c e93d 58c4 e6bf
00000010: ec2e 1abf 7b83 043f 57d1 033f 4d15 b7bf
-0.049706653 2.3418748 0.11385359 -1.8028669 -0.6022785 0.51763123 0.514913 -1.4303375

weight f4 [4, 8]
00000000: 1de0 96bf fcca 933e 2013 73bd 035d 79c0
00000010: 107d fd3c c097 e0bf 70c9 4ec0 dda8 a73f
00000020: 3f31 2cbe 6c5c be3e 8264 1bc0 70ba 64bf
00000030: a8b2 813e 8e0b 24bf c078 8ebe 2480 f33f
00000040: c006 533f 7782 c3bf 0fd1 463d 3a17 5fbf
00000050: b538 33bf 9201 9f3f 5844 5abe 08e3 57be
00000060: 9265 4f3f ac10 033e c255 213e 4c9d 8abe
00000070: ce86 44bf c6e1 d7be 446c 3940 e6f1 51be
-1.1787144 0.28865802 -0.05934441 -3.896302 0.030943424 -1.754631 -3.2310448 1.3098408
-0.16815661 0.37179887 -2.4280095 -0.8934698 0.25331616 -0.6408013 -0.278265 1.902348
0.82432175 -1.527419 0.048539218 -0.87144816 -0.70008403 1.2422354 -0.21315134 -0.210827
0.8101436 0.12799329 0.1575537 -0.27073133 -0.76768196 -0.4216444 2.897233 -0.20502433

bias f4 [4]
00000000: 4a54 c83f f8f8 093f 340f 4fbf e233 afbf
1.5650723 0.5389552 -0.80882573 -1.3687708

weight f4 [2, 4]
00000000: 81e2 8a3e 0453 8a3f 54ce 1e40 8d87 23bf
00000010: c325 c43f 1cfd aabe 6842 9bbf d5d4 9d40
0.27125934 1.0806584 2.4813433 -0.6387871 1.5324024 -0.33396232 -1.212964 4.9322305

bias f4 [2]
00000000: 5f08 aa3f 6886 a1bf
1.3283805 -1.2619143
