AIFinal/Grad.pt (torch, 4458 bytes, 6 tensors)

weight f4 [8, 4]
0	0xbe8faf43	-0.28063402
1	0xbf523479	-0.82111317
2	0xbfb09405	-1.3795172
3	0xbf94c62a	-1.1622975
4	0x3e17e6f9	0.14834203
5	0x3f1d6d6e	0.614951
6	0x3f44a83e	0.7681922
7	0x3f3fe482	0.7495805
8	0xbe7be5a6	-0.24599323
9	0xbde13e07	-0.10998159
10	0xbf076419	-0.5288711
11	0xbf220542	-0.6328927
12	0x3eeb276d	0.45928517
13	0x3f5918d6	0.8480352
14	0x3fe3099a	1.7737305
15	0x3fdeb78f	1.7399768
16	0xbe60e101	-0.21960832
17	0x3cf17dd6	0.029478949
18	0x3c58fa02	0.0132432
19	0xbef6d808	-0.48211694
20	0x3e17cecc	0.1482498
21	0x3d0ffc60	0.035152793
22	0x3e06c94e	0.13162729
23	0x3e882eeb	0.26598296
24	0x3e8ead0c	0.278664
25	0x3ddac5a2	0.10682227
26	0xbec43d22	-0.3832789
27	0xbe10f4dd	-0.14155908
28	0xbec024e3	-0.37528142
29	0xbebb3022	-0.3656016
30	0xbea74200	-0.32667542
31	0xbde95777	-0.11393636

bias f4 [8]
0	0x3ef99c4c	0.48752058
1	0x3ec85bad	0.39132443
2	0x3eb1c4ad	0.34720364
3	0x3ebdc4fd	0.37064353
4	0xbde65c72	-0.11248101
5	0xbed7762c	-0.42082345
6	0x3e29cc02	0.16581729
7	0xbec80b7e	-0.39071268

weight f4 [4, 8]
0	0xbfaf53e4	-1.3697476
1	0x3f4b0f76	0.79320467
2	0xbf180273	-0.5937874
3	0x3fdf66e0	1.745327
4	0xbe498a3c	-0.19681638
5	0xbe1c9fb0	-0.15295291
6	0xbdad45df	-0.084605925
7	0xbe858be8	-0.26083302
8	0x3e357a73	0.17722492
9	0x3caa7da0	0.020811856
10	0xbdd6edd6	-0.10494582
11	0x3e7617e5	0.24032553
12	0xbe2d837a	-0.16944686
13	0x3e94387a	0.28949338
14	0xbc783372	-0.015148984
15	0xbeb37a4f	-0.35054252
16	0xbd88d25b	-0.06680747
17	0xbe9940c1	-0.29932216
18	0x3cc0f335	0.02355347
19	0xbe9423cd	-0.28933564
20	0x3d90cf88	0.070708334
21	0xbdf79e99	-0.12090797
22	0x3df3af31	0.118986495
23	0x3e306344	0.17225367
24	0xbe8edc55	-0.27902475
25	0xbe74ded1	-0.23913123
26	0xbdda4dd7	-0.10659378
27	0xbd45d64b	-0.04830007
28	0xbc13c417	-0.009018919
29	0xbbdac925	-0.0066768103
30	0x3e539a0c	0.20664233
31	0x3d0e6c3d	0.034771193

bias f4 [4]
0	0x3ef334e6	0.47501296
1	0xbeb33557	-0.35001633
2	0xbe762a13	-0.24039488
3	0xbcec3577	-0.028834088

weight f4 [2, 4]
0	0xbfb03d6d	-1.3768746
1	0xbe4ece3c	-0.2019586
2	0xbe8aed44	-0.27134144
3	0xbe8d4893	-0.27594432
4	0x3fcdf918	1.6091642
5	0xbe6d5908	-0.23178494
6	0x3e94927a	0.29018003
7	0xbe10ccf0	-0.14140677

bias f4 [2]
0	0x3fb59edd	1.4189106
1	0xbfb58af3	-1.4183029
