Models/Adam.pt (torch, 4458 bytes, 6 tensors)

weight f4 [8, 4]
0.040824566 0.43460938 3.494861 1.1632756 0.1017592 0.58785266 4.0433693 1.3850625
0.032911483 0.4081927 4.23683 0.9529124 0.038485736 -0.09249977 0.49056017 -0.04827355
0.13098553 0.04038212 -0.29167238 -0.11457607 0.09847156 0.056406695 -0.24837956 0.11814076
-0.26501104 0.059622716 -2.0919707 -1.147668 0.36512607 -0.7878103 0.6669124 0.17504744
00000000: a937 273d 1f85 de3e cdab 5f40 37e6 943f
00000010: 2167 d03d 837d 163f 4863 8140 ba49 b13f
00000020: 31ce 063d a2fe d03e 1d94 8740 11f2 733f
00000030: 38a3 1d3d 8570 bdbd b42a fb3e 7cba 45bd
00000040: 1221 063e b967 253d 1556 95be dca6 eabd
00000050: 75ab c93d b50a 673d 3657 7ebe c8f3 f13d
00000060: 87af 87be f336 743d d9e2 05c0 c9e6 92bf
00000070: cef1 ba3e f0ad 49bf c5ba 2a3f a33f 333e

bias f4 [8]
0.2882117 0.1688805 0.40015006 -0.64733684 -0.7138296 -0.52424145 0.7111395 -0.6661504
00000000: 7c90 933e 03ef 2c3e 78e0 cc3e deb7 25bf
00000010: 89bd 36bf b034 06bf 3d0d 363f d588 2abf

weight f4 [4, 8]
-0.3228612 0.055654563 -0.10425722 0.2687319 -0.3027298 -0.032735445 -0.4032248 0.18752494
-0.09863348 0.09730279 -0.51375324 0.322846 0.072174 0.20305716 0.104028 -0.30411568
1.3232292 1.4016784 1.1229352 0.16094166 0.20586129 -0.09404529 -1.1957753 0.2843549
-0.3281729 -0.6681248 -0.3064409 -0.037892293 -0.10773975 -0.2922735 0.44386414 -0.043065295
00000000: 104e a5be 0af6 633d cf84 d5bd 3a97 893e
00000010: 66ff 9abe 9a15 06bd 7b73 cebe 8a06 403e
00000020: 5a00 cabd af46 c73d 5585 03bf 124c a53e
00000030: f6cf 933d 37ee 4f3e a20c d53d 0db5 9bbe
00000040: 935f a93f 336a b33f 57bc 8f3f e4cd 243e
00000050: 4dcd 523e d19a c0bd 2a0f 99bf f796 913e
00000060: 4706 a8be 3a0a 2bbf d2e5 9cbe f334 1bbd
00000070: a8a6 dcbd dfa4 95be 2942 e33e 3c65 30bd

bias f4 [4]
-0.04557709 -0.2827296 -0.044229366 -0.04936468
00000000: 0baf 3abd efc1 90be da29 35bd 9e32 4abd

weight f4 [2, 4]
0.23192482 -0.30572742 -0.68701 0.1592959 0.24306506 -0.07057071 1.1701869 -0.52601004
00000000: b37d 6d3e 4e88 9cbe e3df 2fbf 771e 233e
00000010: 0ce6 783e 6087 90bd afc8 953f 98a8 06bf

bias f4 [2]
1.0565633 -1.0334843
00000000: 773d 873f 3749 84bf
